…
______________________________________以下开始建立当前ensemble集成模型，并对其内每个model进行训练、验证、测试--(run_training.py)______________________________________
▽▽▽▽▽▽▽▽▽▽▽▽▽▽▽▽▽▽▽▽▽▽▽▽▽▽▽▽循环训练ensemble中每个model，共5个model，当前第1个model--(run_training.py)▽▽▽▽▽▽▽▽▽▽▽▽▽▽▽▽▽▽▽▽▽▽▽▽▽▽▽▽
____________________________________生成ensemble的model 0 --(run_training.py(cgx))____________________________________
将“消息传递网络”和“全连接网络”结合形成一个model--(run_training.py):
 MoleculeModel(
  (sigmoid): Sigmoid()
  (encoder): MPN(
    (encoder): ModuleList(
      (0): MPNEncoder(
        (dropout_layer): Dropout(p=0.3, inplace=False)
        (act_func): ReLU()
        (W_i): Linear(in_features=147, out_features=1800, bias=False)
        (W_h): Linear(in_features=1800, out_features=1800, bias=False)
        (W_o): Linear(in_features=1933, out_features=1800, bias=True)
      )
    )
  )
  (ffn): Sequential(
    (0): Dropout(p=0.3, inplace=False)
    (1): Linear(in_features=1800, out_features=1800, bias=True)
    (2): ReLU()
    (3): Dropout(p=0.3, inplace=False)
    (4): Linear(in_features=1800, out_features=1800, bias=True)
    (5): ReLU()
    (6): Dropout(p=0.3, inplace=False)
    (7): Linear(in_features=1800, out_features=1, bias=True)
  )
)
Number of parameters = 13,473,001 --(run_training.py)
Moving model to cuda--(run_training.py)

____________________________________↓↓↓model 0的Epoch 0 开始训练--(run_training.py)____________________________________
◎◎◎◎◎◎◎◎◎◎◎◎◎◎◎◎◎◎◎◎◎◎◎◎◎◎◎◎◎◎◎◎整个程序从cross_validate()函数开始执行--(cross_validate.py)◎◎◎◎◎◎◎◎◎◎◎◎◎◎◎◎◎◎◎◎◎◎◎◎◎◎◎◎◎◎◎◎
______________即，执行K fold交叉验证（在每个分割数据（fold）上训练和测试一个ensemble模型）--（cross_validate.py）_______________
…
______________________________________以下开始建立当前ensemble集成模型，并对其内每个model进行训练、验证、测试--(run_training.py)______________________________________
▽▽▽▽▽▽▽▽▽▽▽▽▽▽▽▽▽▽▽▽▽▽▽▽▽▽▽▽循环训练ensemble中每个model，共5个model，当前第1个model--(run_training.py)▽▽▽▽▽▽▽▽▽▽▽▽▽▽▽▽▽▽▽▽▽▽▽▽▽▽▽▽
____________________________________生成ensemble的model 0 --(run_training.py(cgx))____________________________________
将“消息传递网络”和“全连接网络”结合形成一个model--(run_training.py):
 MoleculeModel(
  (sigmoid): Sigmoid()
  (encoder): MPN(
    (encoder): ModuleList(
      (0): MPNEncoder(
        (dropout_layer): Dropout(p=0.3, inplace=False)
        (act_func): ReLU()
        (W_i): Linear(in_features=147, out_features=1600, bias=False)
        (W_h): Linear(in_features=1600, out_features=1600, bias=False)
        (W_o): Linear(in_features=1733, out_features=1600, bias=True)
      )
    )
  )
  (ffn): Sequential(
    (0): Dropout(p=0.3, inplace=False)
    (1): Linear(in_features=1600, out_features=1600, bias=True)
    (2): ReLU()
    (3): Dropout(p=0.3, inplace=False)
    (4): Linear(in_features=1600, out_features=1600, bias=True)
    (5): ReLU()
    (6): Dropout(p=0.3, inplace=False)
    (7): Linear(in_features=1600, out_features=1, bias=True)
  )
)
Number of parameters = 10,696,001 --(run_training.py)
Moving model to cuda--(run_training.py)

____________________________________↓↓↓model 0的Epoch 0 开始训练--(run_training.py)____________________________________
◎◎◎◎◎◎◎◎◎◎◎◎◎◎◎◎◎◎◎◎◎◎◎◎◎◎◎◎◎◎◎◎整个程序从cross_validate()函数开始执行--(cross_validate.py)◎◎◎◎◎◎◎◎◎◎◎◎◎◎◎◎◎◎◎◎◎◎◎◎◎◎◎◎◎◎◎◎
______________即，执行K fold交叉验证（在每个分割数据（fold）上训练和测试一个ensemble模型）--（cross_validate.py）_______________
…
______________________________________以下开始建立当前ensemble集成模型，并对其内每个model进行训练、验证、测试--(run_training.py)______________________________________
▽▽▽▽▽▽▽▽▽▽▽▽▽▽▽▽▽▽▽▽▽▽▽▽▽▽▽▽循环训练ensemble中每个model，共5个model，当前第1个model--(run_training.py)▽▽▽▽▽▽▽▽▽▽▽▽▽▽▽▽▽▽▽▽▽▽▽▽▽▽▽▽
____________________________________生成ensemble的model 0 --(run_training.py(cgx))____________________________________
将“消息传递网络”和“全连接网络”结合形成一个model--(run_training.py):
 MoleculeModel(
  (sigmoid): Sigmoid()
  (encoder): MPN(
    (encoder): ModuleList(
      (0): MPNEncoder(
        (dropout_layer): Dropout(p=0.3, inplace=False)
        (act_func): ReLU()
        (W_i): Linear(in_features=147, out_features=1400, bias=False)
        (W_h): Linear(in_features=1400, out_features=1400, bias=False)
        (W_o): Linear(in_features=1533, out_features=1400, bias=True)
      )
    )
  )
  (ffn): Sequential(
    (0): Dropout(p=0.3, inplace=False)
    (1): Linear(in_features=1400, out_features=1400, bias=True)
    (2): ReLU()
    (3): Dropout(p=0.3, inplace=False)
    (4): Linear(in_features=1400, out_features=1400, bias=True)
    (5): ReLU()
    (6): Dropout(p=0.3, inplace=False)
    (7): Linear(in_features=1400, out_features=1, bias=True)
  )
)
Number of parameters = 8,239,001 --(run_training.py)
Moving model to cuda--(run_training.py)

____________________________________↓↓↓model 0的Epoch 0 开始训练--(run_training.py)____________________________________
◎◎◎◎◎◎◎◎◎◎◎◎◎◎◎◎◎◎◎◎◎◎◎◎◎◎◎◎◎◎◎◎整个程序从cross_validate()函数开始执行--(cross_validate.py)◎◎◎◎◎◎◎◎◎◎◎◎◎◎◎◎◎◎◎◎◎◎◎◎◎◎◎◎◎◎◎◎
______________即，执行K fold交叉验证（在每个分割数据（fold）上训练和测试一个ensemble模型）--（cross_validate.py）_______________
…
______________________________________以下开始建立当前ensemble集成模型，并对其内每个model进行训练、验证、测试--(run_training.py)______________________________________
▽▽▽▽▽▽▽▽▽▽▽▽▽▽▽▽▽▽▽▽▽▽▽▽▽▽▽▽循环训练ensemble中每个model，共5个model，当前第1个model--(run_training.py)▽▽▽▽▽▽▽▽▽▽▽▽▽▽▽▽▽▽▽▽▽▽▽▽▽▽▽▽
____________________________________生成ensemble的model 0 --(run_training.py(cgx))____________________________________
将“消息传递网络”和“全连接网络”结合形成一个model--(run_training.py):
 MoleculeModel(
  (sigmoid): Sigmoid()
  (encoder): MPN(
    (encoder): ModuleList(
      (0): MPNEncoder(
        (dropout_layer): Dropout(p=0.3, inplace=False)
        (act_func): ReLU()
        (W_i): Linear(in_features=147, out_features=2000, bias=False)
        (W_h): Linear(in_features=2000, out_features=2000, bias=False)
        (W_o): Linear(in_features=2133, out_features=2000, bias=True)
      )
    )
  )
  (ffn): Sequential(
    (0): Dropout(p=0.3, inplace=False)
    (1): Linear(in_features=2000, out_features=2000, bias=True)
    (2): ReLU()
    (3): Dropout(p=0.3, inplace=False)
    (4): Linear(in_features=2000, out_features=2000, bias=True)
    (5): ReLU()
    (6): Dropout(p=0.3, inplace=False)
    (7): Linear(in_features=2000, out_features=1, bias=True)
  )
)
Number of parameters = 16,570,001 --(run_training.py)
Moving model to cuda--(run_training.py)

____________________________________↓↓↓model 0的Epoch 0 开始训练--(run_training.py)____________________________________
◎◎◎◎◎◎◎◎◎◎◎◎◎◎◎◎◎◎◎◎◎◎◎◎◎◎◎◎◎◎◎◎整个程序从cross_validate()函数开始执行--(cross_validate.py)◎◎◎◎◎◎◎◎◎◎◎◎◎◎◎◎◎◎◎◎◎◎◎◎◎◎◎◎◎◎◎◎
______________即，执行K fold交叉验证（在每个分割数据（fold）上训练和测试一个ensemble模型）--（cross_validate.py）_______________
…
______________________________________以下开始建立当前ensemble集成模型，并对其内每个model进行训练、验证、测试--(run_training.py)______________________________________
▽▽▽▽▽▽▽▽▽▽▽▽▽▽▽▽▽▽▽▽▽▽▽▽▽▽▽▽循环训练ensemble中每个model，共5个model，当前第1个model--(run_training.py)▽▽▽▽▽▽▽▽▽▽▽▽▽▽▽▽▽▽▽▽▽▽▽▽▽▽▽▽
____________________________________生成ensemble的model 0 --(run_training.py(cgx))____________________________________
将“消息传递网络”和“全连接网络”结合形成一个model--(run_training.py):
 MoleculeModel(
  (sigmoid): Sigmoid()
  (encoder): MPN(
    (encoder): ModuleList(
      (0): MPNEncoder(
        (dropout_layer): Dropout(p=0.3, inplace=False)
        (act_func): ReLU()
        (W_i): Linear(in_features=147, out_features=1200, bias=False)
        (W_h): Linear(in_features=1200, out_features=1200, bias=False)
        (W_o): Linear(in_features=1333, out_features=1200, bias=True)
      )
    )
  )
  (ffn): Sequential(
    (0): Dropout(p=0.3, inplace=False)
    (1): Linear(in_features=1200, out_features=1200, bias=True)
    (2): ReLU()
    (3): Dropout(p=0.3, inplace=False)
    (4): Linear(in_features=1200, out_features=1200, bias=True)
    (5): ReLU()
    (6): Dropout(p=0.3, inplace=False)
    (7): Linear(in_features=1200, out_features=1, bias=True)
  )
)
Number of parameters = 6,102,001 --(run_training.py)
Moving model to cuda--(run_training.py)

____________________________________↓↓↓model 0的Epoch 0 开始训练--(run_training.py)____________________________________
_______________________↑↑所有batch循环结束--(train.py(cgx))_______________________
____________________________________↑↑↑model 0的Epoch 0 训练结束--(run_training.py)_______________________________________________________
…
